baseline.pt (torch, 5720 bytes, 4 tensors)

net.0.weight f4 [128, 4]
00000000: 18fb 65be 3e30 8dbe 090b 4c3f 41ad 36bd
00000010: 8537 2cbf 81f9 863d ca9f cb3f f2c7 e73e
00000020: 2830 88be 7ea3 af3e d180 6b3f 4d75 fb3e
00000030: 316e 093f b795 64bf 536e 80bf 51af 14bf
00000040: 4c6e 05bf b53c 643f 7f8d 9c3f e65a 443f
00000050: 81d9 7fbe 835f 4a3e bd0c 5b3f 4d22 5f3f
00000060: f048 07bf b4ff 253f f396 9c3f 2880 d43e
00000070: f284 373f 7165 a0be d3a5 3dbf a1c2 6dbf
00000080: e457 c3be 5c3a 6e3e e22e 9d3e e5dc 8f3d
00000090: 2887 cfbc 9a48 5dbe bc60 603e bda1 d5bd
000000a0: 13a4 b53e f865 cabe 0724 43bf 17b5 25bf
000000b0: 341d ae3e c9bf ab3e 5e30 1bbf b54c 12bf
000000c0: 5e7f 0fbf cab0 ef3e 1b0e 9d3f b615 163f
000000d0: 8614 813f 8d14 22bf 3825 97bf 5fb6 68bf
000000e0: 428d babd 2050 473f 13d8 b93f e080 7d3f
000000f0: 4e65 e1be ab5e ab3d 665b 173f ce5f 2a3f
00000100: 7514 8a3b 7f25 253e ef58 b63f d59c 5d3f
00000110: c313 49bf 641e 323f bbb6 b73f 1560 033f
00000120: adaa 873e ab38 423f 1f37 9e3f 6c35 7b3f
00000130: 2ccc fcbd 5ca1 743e 6468 8f3e 972c e03e
00000140: 5821 b6be a4a0 1d3e 18ab b43d 000a 383c
00000150: 0be6 40bf 2789 a4be 4639 713f 9384 c23e
00000160: 5e73 503e 7a0f 56be 7758 d5bc 886f 8bbd
00000170: 85ce 413d f62d d53c 3b26 ba3f 5505 4c3f
00000180: 1537 973d 2d20 97bd 4ba0 a1bf d9f8 59bf
00000190: 4cd8 063f 0881 13bf a123 09bf f07f 19bf
000001a0: ab11 943e f014 9b3c 4c0e 013f dff7 7d3e
000001b0: 7d9b a93e ad48 4e3e b1db b1be 1595 f03d
000001c0: 3297 9fbd 0fc5 f2be b3fa b7bf 3b93 b9be
000001d0: 691a 433e 9d95 98be fed8 633e 46be 883e
000001e0: e6aa 123f 2649 29bf 509f 35bf cff5 26bf
000001f0: 4cab b0be b3b2 d9bd 2ed4 323f 3e1b 133e
00000200: 2025 29be 4fdc 343e 0272 963f d5d6 833e
00000210: 17a6 f03e ce47 aabe 6186 b6bf 7748 d6be
00000220: bb8e 383d e122 cc3c b05b c6bf c2e7 44bf
00000230: da15 cf3e 2cb7 c2be 7708 7d3f 29be 5b3e
00000240: bbf3 fa3d 8917 783e 907b c83f f5c9 023f
00000250: 6429 073f c158 5abe 7bf2 d4bf cf9c 6abf
00000260: fc11 833e 471d 80be 3dbd 543e ac66 3e3e
00000270: 064e 19bf 2c0f b7bc f49e 2b3f 1151 013f
00000280: 82db c2be 5cbf ae3d e489 6b3e 8a29 533d
00000290: 30f5 123f c9eb 28be 371d b3bf a24a 2bbf
000002a0: 5113 9bbe 14bf 6abe 8a41 5c3e ffa8 103f
000002b0: f1d4 d4be ea5b 0b3f 2c8e c73f af62 bc3e
000002c0: e512 0abf caa8 6d3d e446 7c3f 09fb 2b3f
000002d0: 8541 4abf 2168 fd3e 55aa b73f 714d 613f
000002e0: 7bae 993e 9e9e 223f 81ed 693f e93d 0e3f
000002f0: 6e09 02be fe4d 8bbe 06d3 a9be ee28 bcbd
00000300: ff18 06bf db59 ed3e 31b8 9a3f afce 413f
00000310: 5f49 2a3f e3aa 42bf 75b6 cfbf 14e5 25bf
00000320: d0c9 193e 385a b4be 1bc6 bcbf 1f47 dabe
00000330: fc06 ecbe 1e0e 063e 8e09 ca3f 49fc 903e
00000340: 8338 96be 84e5 0ebe 0bc1 4a3f 6cd3 bf3e
00000350: 80ad a6bc c04e 3fbe 581b 183e 70a8 04be
00000360: 9485 a73c b606 79bf 02eb 9cbf 3e8f 23bf
00000370: e1b2 cd3e c53c 1fbe 3814 81be 6b66 0fbd
00000380: a277 be3e 10d4 07bf 64f1 24bf ab97 3dbf
00000390: 0cee d63e 2af8 05bf bab4 b4bf e055 24bf
000003a0: bd06 91bd 7a4a 073f 027d ba3f 93a1 133f
000003b0: 8758 12bf 028d 2bbf d38d fdbe b35f c3be
000003c0: bc0e 9ebe 234e 9ebe dcbe 0c3f 6900 cb3e
000003d0: d11a b0be 9993 a2bd 9c7c 4b3f 8a77 ab3e
000003e0: 5f4b 58bd 9692 143f 95eb 9c3f fb2f 583f
000003f0: c23e 6bbd 6130 bf3e d284 7f3f 4d80 2c3f
-0.22459066 -0.27575868 0.7970434 -0.04459882 -0.67272216 0.06590558 1.5908139 0.45269734
-0.2659924 0.34304422 0.91993433 0.4911293 0.53683764 -0.89290947 -1.0033668 -0.5808001
-0.52121425 0.8915513 1.2230681 0.767012 -0.24985315 0.19762997 0.8556631 0.87161714
-0.5284567 0.64843297 1.2233566 0.41504025 0.71687233 -0.31327394 -0.7408115 -0.92875105
-0.38152993 0.2326445 0.3069983 0.07024554 -0.025333002 -0.21609727 0.21911901 -0.1043124
0.3547674 -0.3953092 -0.7622685 -0.64729446 0.34006655 0.33544758 -0.6062068 -0.57148296
-0.5605372 0.46814567 1.226993 0.5862688 1.0084388 -0.6331261 -1.1808233 -0.90903276
-0.09108974 0.77856636 1.4519066 0.9902477 -0.44022602 0.08367666 0.5912384 0.66552436
0.0042138644 0.16127585 1.424589 0.8656743 -0.7854578 0.6957762 1.435264 0.51318485
0.26497403 0.7586772 1.2360572 0.9812839 -0.1234363 0.23889679 0.2800933 0.4378402
-0.35572314 0.15393311 0.08821696 0.011232853 -0.7535102 -0.3213589 0.9422802 0.3799177
0.20356509 -0.20904341 -0.02604316 -0.06808382 0.047316093 0.026022892 1.4542917 0.79695636
0.07383553 -0.07379184 -1.2627043 -0.85145336 0.5267379 -0.5761876 -0.5356999 -0.5996084
0.2891973 0.018930882 0.5041244 0.24801587 0.3312644 0.20144911 -0.34737924 0.11747185
-0.0779251 -0.4741597 -1.4373382 -0.3624514 0.19053043 -0.29801646 0.22250745 0.26707667
0.5729202 -0.6612724 -0.70946217 -0.65218824 -0.3450569 -0.10629787 0.6985501 0.14365861
-0.16518068 0.17662166 1.1753542 0.2574984 0.47001716 -0.33257908 -1.4259759 -0.4185216
0.045057993 0.024918975 -1.5496731 -0.76916134 0.4044636 -0.38030374 0.9884104 0.21459259
0.12253519 0.24227728 1.5662708 0.5108941 0.5279753 -0.2132292 -1.6636499 -0.9164552
0.25599658 -0.25022337 0.20775314 0.18593854 -0.5988468 -0.022346102 0.6703942 0.5051432
-0.38058096 0.08532593 0.2300182 0.051553287 0.57405376 -0.16496195 -1.3993291 -0.66910756
-0.30288175 -0.22924453 0.21509376 0.5650787 -0.4156871 0.54437125 1.5590262 0.3679404
-0.5393508 0.058022298 0.9854567 0.67179924 -0.79006225 0.49493507 1.4348856 0.8800879
0.3001593 0.6352328 0.9137803 0.5556322 -0.1269891 -0.2720794 -0.3316881 -0.09187494
-0.5238189 0.46357617 1.2087461 0.75706 0.66518205 -0.76042 -1.6227556 -0.6480267
0.15018392 -0.3522508 -1.4747957 -0.42632386 -0.4609908 0.13091323 1.5784166 0.28317478
-0.2933999 -0.13954741 0.7920081 0.3746599 -0.020346403 -0.18682384 0.14854181 -0.12954879
0.020449437 -0.97275865 -1.2259219 -0.63890445 0.40175536 -0.15550525 -0.25210738 -0.035009783
0.37200648 -0.53057957 -0.6443083 -0.7405955 0.4197849 -0.52331793 -1.4117653 -0.64193535
-0.07081363 0.5284802 1.4569399 0.5766842 -0.5716633 -0.67012036 -0.49522266 -0.3815895
-0.30870616 -0.3091899 0.5497873 0.3964875 -0.3439546 -0.07938308 0.79487014 0.3348964
-0.052806254 0.5803617 1.2259394 0.8444821 -0.057432897 0.37341598 0.9981204 0.6738327

net.0.bias f4 [128]
00000000: 5523 8bbe 9cd6 0a3f 6f6f 593e 4d1b 7f3e
00000010: be3e ff3e c99e 403e 1812 b63e b5fc 963d
00000020: d55a dcbe be8b dbbe a2a8 023e a5e9 c9be
00000030: 9fc2 973e 46ed 853e 489c 183f 15e6 ac3e
00000040: c3fb c33e f684 d63e 6a3e 893e d6ee 52bd
00000050: c4e0 b0be 2959 10be 8359 24be 0cc5 2d3e
00000060: cd48 843d 5fb3 113e 7e13 0f3d f234 adbe
00000070: 312a 403e b88b 99be 7aaf 3f3e ee11 20be
00000080: f049 4a3e cfe3 213e cf7a 9b3d afe9 81be
00000090: 4f55 ab3e 7f5c 843e c91e 50be 2302 173c
000000a0: 4f72 66be 5b37 1a3e 2493 c8be c539 c73e
000000b0: 8b6d 303e b952 163f 3b88 893d 7a01 463d
000000c0: 0db7 093f 007b 9f3e 974c 313e b28c 933e
000000d0: c6d4 4bbd 3e98 dbbe 499e 943e e05f 3cbe
000000e0: b045 1e3e b0c6 643e 8f98 cd3e 3e0a 323e
000000f0: 4605 b0be a482 df3e d19d e83e 3276 8d3e
00000100: edc1 00bf afcb ba3d 0056 383e b5e5 263e
00000110: 151f 0ebb f53e d13e 559c 573e b934 b0bd
00000120: bab5 0cbe 5e47 0abe bdfd 9abe f5ac ae3d
00000130: dcc5 683e 3f42 fa3e c8d1 033f 12a7 c1be
00000140: d7dd f33e 8a8b 553e d610 debd a03b d53e
00000150: 57c1 9cbd a47a dcbe 1d3b febe 467f cabe
00000160: ae75 a63e 0321 b93e 1583 7dbd ff83 f4bc
00000170: 8dac e3be d503 61be 13c6 72bd 97f4 013f
00000180: 44af 973e 0984 a9be 3d81 383e 1545 ac3d
00000190: eab2 173e 82ab 963e 2a00 853e 8e63 bb3e
000001a0: 46e7 d33e 2ca8 d6be be83 d6be b8d2 a93e
000001b0: a634 e7be 7b17 b93e 0958 bcbd ed4a 623e
000001c0: 6090 cbbe 9cc3 003e f173 44be 4cb3 843e
000001d0: 8601 e03e 1d48 a83e 93e7 ad3e f120 c7bd
000001e0: f472 89be 9d3a 883e 9580 683e cfbb 18bf
000001f0: 1789 c3be 0d4e af3e a821 c83d b9ed 733e
-0.27175394 0.5423372 0.21233915 0.24912758 0.49852556 0.18810572 0.3556068 0.07372419
-0.4303805 -0.42880052 0.12759641 -0.3943607 0.29640672 0.26157588 0.59613466 0.3376929
0.38278016 0.41898316 0.2680543 -0.051497303 -0.34546483 -0.14096512 -0.16049771 0.16969699
0.06459198 0.14228581 0.0349307 -0.33829457 0.18766095 -0.2998941 0.18719283 -0.1563184
0.19754767 0.15809558 0.07591783 -0.253736 0.33463523 0.2585182 -0.20324244 0.009216818
-0.22504543 0.15060179 -0.3917476 0.38911262 0.17229287 0.58719975 0.06715437 0.048341252
0.5379494 0.3114853 0.17314373 0.2881828 -0.049763463 -0.4288959 0.29027012 -0.18395948
0.15456271 0.22341418 0.40155455 0.1738672 -0.34379023 0.43654358 0.45432904 0.27629238
-0.5029591 0.09120881 0.18001556 0.16298564 -0.0021686007 0.40868345 0.2105573 -0.08603806
-0.13741198 -0.13503787 -0.30271712 0.08529083 0.22731727 0.48878667 0.51491976 -0.37822777
0.47630188 0.20854011 -0.10843055 0.41647053 -0.07654064 -0.43062317 -0.49654475 -0.39550227
0.32511657 0.36157998 -0.061892588 -0.029848097 -0.44467583 -0.21974118 -0.05927093 0.5076384
0.29625905 -0.33108547 0.1801805 0.08411614 0.14814344 0.29427725 0.25976688 0.36599392
0.41387385 -0.4192518 -0.41897386 0.33168578 -0.45157355 0.36150727 -0.09196479 0.22098894
-0.39758587 0.12574619 -0.19184853 0.25918043 0.43751162 0.32867518 0.3396574 -0.0972308
-0.26845515 0.26607218 0.227053 -0.59661573 -0.3819053 0.34239236 0.097720444 0.23821153

net.2.weight f4 [2, 128]
00000000: 11f7 27be 738d 9dbe 34eb 82be 11d7 373f
00000010: 8f19 2cbf 1831 8ebe 198a 3abf bfb0 203f
00000020: 7ecb 1d3c 89bb 083d 86db bd3e 9bde bb3e
00000030: e91b 20bf 907a 3a3f 321b 14bf 00c9 a3bd
00000040: dfc4 aebe 033d 30bf 2052 3fbf cbb1 b9bd
00000050: 1b31 903d abbf 6fbe e171 11bc 86fd 02bf
00000060: a2d2 383f c1ed 6e3e 327c debc aba3 883c
00000070: c0de 0c3f 5992 a3bd 64ee 0e3f a37b 963c
00000080: 25a9 cbbd f948 b63e eb66 213f 8e63 7bbe
00000090: b78d f5be 6a4b f03e 87ba 68bd a020 75be
000000a0: 9e7b ed3c 0bfb 2b3f 78dd 69be 52f3 29bf
000000b0: a5cc 64be 6b29 fdbe 6ab0 93be 2e98 3b3d
000000c0: 6578 f0be 90b2 0f3f 2ef3 d63e 8c4c acbe
000000d0: 9d6c d9bc 0166 523c 6d87 383f 45b2 753c
000000e0: e839 233e aadb 7c3e cc01 25bf 4510 0e3e
000000f0: dfb0 63be 92ba 85bd 0720 debe 8071 f8be
00000100: 5e2b 9e3d 51d6 f03e dccf 1a3f dac1 d03e
00000110: 7d6e c0be 62bb 25bf a01f 2bbf b62b 9b3e
00000120: 5504 b83e 476a bd3c 6894 ab3e 894f 2f3f
00000130: bf62 0a3f ef71 08bf 5fb1 babe 15fd 6dbd
00000140: 885f 25bf c483 27bf 1103 063f 1e97 23bf
00000150: ae5a ec3e 7213 8ebd 46e4 5abe 8b64 c13e
00000160: 8c7f c63e 27a4 e9be d7af db3e 31f8 c5be
00000170: 4fb2 c33c e2ea ca3e 8c4d 663c 9b8d 03bf
00000180: c973 073f c176 c0bc 2990 3b3e a9d4 243f
00000190: 6caa 1abf cac5 313f 1ae3 3ebf 54fc f6be
000001a0: 465a bfbe 012b 3bbe 7eea 743c 11f8 d1be
000001b0: 596c cd3c 209e 41be 3abc ab3e e989 d33e
000001c0: ad7a b1bd 57c2 4d3f feea f4bc 947c 073f
000001d0: f5ff babe 0db8 e03e 593b 07bf e801 8c3e
000001e0: 47f8 b63b c8c9 173f 95b9 1f3f 3ec6 77bd
000001f0: 395e 9abe b85a 1f3f 6b09 4a3f 9a80 883e
00000200: 5546 083e cf2b b23e b92b ac3e b6c0 2fbf
00000210: 93e1 2b3f 34b3 993e 15d1 433f 7bac 2abf
00000220: ad81 a93c ceaa 1fbc 0256 a0be bb72 bfbe
00000230: d0da 1d3f a166 4ebf c70a 013f b701 2f3e
00000240: 85a8 d23e 3b10 323f b635 473f 609f 9dbb
00000250: a9b9 17bd 2b2f 913e 222e 783d 8cdc de3e
00000260: c8d3 12bf 51e7 8ebe 919a 3c3d 779f 8a3d
00000270: 2dca f2be 4d36 833d cfe9 dabe 61d2 41bd
00000280: 6d1c 6e3e 967f c6be c153 18bf 6b49 203e
00000290: 7fc9 bb3e b78b f2be 494e c13c e059 663e
000002a0: cc19 a9b9 ea2d 0dbf 4ce2 753e c216 1a3f
000002b0: 3859 503e 8e83 e63e 5001 da3e c224 91bd
000002c0: bc27 ff3e c4d5 32bf 50ca 01bf f7e3 c93e
000002d0: 9ec3 1d3e ad5c 2c3d 8bb5 3cbf d4c2 8ebc
000002e0: f0a8 0fbe 21c5 adbe edd7 093f 955a 0ebe
000002f0: db55 553e bc1e 363e cd55 e63e 877e 023f
00000300: 9f9a 433d 4b32 13bf 1fa7 19bf 7a87 e7be
00000310: 2b6c ad3e 9ac6 2c3f 6701 0d3f fd71 b1be
00000320: 13a2 93be b669 14bd fd04 cfbe 489d 09bf
00000330: bdd0 1cbf 6b1c 123f 0a4b f93e 1a7d 0d3d
00000340: 91e8 133f 4d79 3a3f 7254 01bf 7f72 143f
00000350: 4676 aebe baf9 c0bc f5f6 e33d 67f8 98be
00000360: 59b9 bfbe e437 fa3e 0cea f6be bb5f 873e
00000370: dbc3 a93d ee8a c0be e94a 673a 0c8d e13e
00000380: 273a 17bf 9967 41bd 312f 3fbe 8dc2 2fbf
00000390: 54b9 1e3f f664 37bf 8989 323f 18a2 fc3e
000003a0: 9234 e93e 6fbe 4a3e 0862 94bd 75df 0a3f
000003b0: a904 97bd dfa0 ff3d 52d3 ecbe 6b56 debe
000003c0: 3057 47bb 5d7a 52bf e9fc 1e3e 8860 1fbf
000003d0: 379a 073f 7150 08bf 7901 083f 5015 a3be
000003e0: 7b18 47bd 31aa f3be 2194 25bf 2e91 573d
000003f0: 45a3 443e c941 09bf 9bc3 27bf 2e86 2ebe
-0.16402842 -0.3077198 -0.2557007 0.7181254 -0.672265 -0.2777183 -0.7286697 0.62769693
0.009631036 0.033381972 0.37081546 0.36693272 -0.6254259 0.72843266 -0.57853997 -0.07997322
-0.34134576 -0.68843096 -0.7473469 -0.090671144 0.07040616 -0.2341296 -0.0088772485 -0.51168096
0.721964 0.23332883 -0.02715883 0.016679605 0.5502739 -0.07986898 0.55832505 0.018369501
-0.09944371 0.3560255 0.63047665 -0.24549696 -0.47959682 0.46932536 -0.05681851 -0.23938227
0.02898961 0.67179936 -0.2283839 -0.663869 -0.2234369 -0.49445662 -0.2884553 0.045799427
-0.46966854 0.5613184 0.41982406 -0.3365215 -0.026541049 0.012841702 0.72081643 0.014996116
0.15940058 0.2469317 -0.64455867 0.13873394 -0.2223544 -0.06529726 -0.4338381 -0.48524094
0.077231154 0.4703851 0.6047342 0.40772897 -0.37584296 -0.6473905 -0.6684513 0.30306786
0.35940805 0.023121966 0.33511662 0.68480736 0.54056925 -0.5329885 -0.36463448 -0.058102686
-0.64598894 -0.65435433 0.5234843 -0.6390246 0.46162933 -0.06937303 -0.21376142 0.3777202
0.38769186 -0.4563305 0.42907593 -0.38665918 0.023888735 0.39632326 0.014056575 -0.5138795
0.5291105 -0.023494126 0.18316711 0.64386994 -0.60416293 0.6944243 -0.7456528 -0.48239386
-0.3737356 -0.18278123 0.014948485 -0.41009572 0.025076078 -0.18907976 0.33542043 0.41316155
-0.08665977 0.80374664 -0.02989721 0.52924466 -0.36523405 0.4389042 -0.5282493 0.27345204
0.005583796 0.5929227 0.6239255 -0.060491793 -0.3015001 0.622478 0.7892062 0.26660615
0.1330808 0.34799048 0.33627108 -0.6865343 0.67141074 0.30019534 0.7649091 -0.66669434
0.020691717 -0.009745313 -0.3131562 -0.3739222 0.61662006 -0.8062535 0.5040707 0.17090498
0.41144195 0.69556016 0.7781633 -0.0048102587 -0.037042294 0.283563 0.06059087 0.4352764
-0.573544 -0.27910855 0.046045844 0.06768697 -0.47419873 0.064068414 -0.42756507 -0.047319774
0.23253031 -0.38769215 -0.595028 0.15653007 0.36677167 -0.4737222 0.0235969 0.22495222
-0.00032253412 -0.55148184 0.24012107 0.60190976 0.20346534 0.45022243 0.42579126 -0.07087089
0.49835002 -0.6985743 -0.5069933 0.39431736 0.15406653 0.04208057 -0.7371451 -0.017426886
-0.14029288 -0.3393946 0.538451 -0.13901742 0.20833533 0.17785162 0.44987336 0.50974315
0.04775488 -0.57498616 -0.6002063 -0.45220548 0.33871588 0.6749054 0.55080265 -0.3465728
-0.2883459 -0.036233626 -0.40433493 -0.5375562 -0.6125601 0.5707461 0.48690063 0.034543134
0.57776743 0.7284134 -0.5051948 0.5798721 -0.3407461 -0.023556579 0.11131088 -0.29877016
-0.37446097 0.48870766 -0.4822544 0.26440224 0.082893096 -0.37605995 0.0008823113 0.44052923
-0.5907311 -0.04721794 -0.18670346 -0.68656236 0.6200154 -0.7163843 0.6974111 0.49342418
0.4554792 0.19799207 -0.072452605 0.5424722 -0.07373936 0.124818556 -0.46254975 -0.43425307
-0.0030416958 -0.8221796 0.15526165 -0.6225667 0.5296969 -0.53247744 0.5312725 -0.31852198
-0.04860733 -0.47590783 -0.6467915 0.05262869 0.19202907 -0.53616005 -0.65532845 -0.17043373

net.2.bias f4 [2]
00000000: 58f9 0ebe a3cf d83d
-0.13962305 0.105864786
