rtg.pt (torch, 5488 bytes, 4 tensors)

net.0.weight f4 [128, 4]
00000000: 5fcf e9bc e96f 13be 7d0d 163f fc0d c43e
00000010: dbaf aa3e 7829 1cbe efee 713e 710c f43e
00000020: 418b 34bf 44a9 d73b 6edf e4bc 4c0b a0be
00000030: a4bb fabe f4d9 0a3f b3d0 c73e 6308 3f3e
00000040: b240 d43e f128 03be ff2e c7bd d8e7 e23d
00000050: 9eca 3fbc a7dd 0a3d e0b8 a9be bdab a83d
00000060: 6fd6 7abe 4fb1 113b 4d23 193f 86a9 aebd
00000070: 6451 bfbe 398d 013f 34f4 5e3d 81c2 38be
00000080: cdd7 373d 1698 c0be 0231 b4be 4c46 7abe
00000090: f27c 3b3c ba84 35be 2abc 03be 6c55 b73e
000000a0: b816 e1bb 9d0d 1ebd d38e a3be 7db7 b1be
000000b0: e22f 90bd d82a 71be 5fa2 b3be d061 903e
000000c0: 3ee2 8ebe b956 9fbe 4819 1cbe 5685 c53e
000000d0: 174d 85be 2f4b 14be f247 b93e 4203 553e
000000e0: a07a 563e 179a febe 0ab3 b7be bbd5 a6be
000000f0: 227b d33e e082 513d 3076 bfbe 0030 4d3b
00000100: 600f 8bbe 04f8 d4bd 201d 79bc 9608 213f
00000110: 7e6e 303e 3aef b6bd 78d3 4a3d 47b0 14be
00000120: cfdc 893d 9603 f73d 26a8 513e 94db f6bd
00000130: 77b1 ae3e 0ded b5bd 4b04 c0bc 047e b23e
00000140: df3e 9d3e bfd9 383f 493f 483e 49ea f9be
00000150: 6469 603d 0dff 203f acb1 e7be 5c54 b3be
00000160: f344 edbe 99d1 7f3d cbda 763e 116e 70be
00000170: 4e7a 53be 3e2e 9a3e 0e69 3dbd f99c 30bf
00000180: 877b dc3e e47d 61be 69c0 a3bd 4078 843c
00000190: 345e e83c 014d eebe b220 093f 1a40 9bbd
000001a0: 751d 08bf e23b 283e 7fda 53be 0e3b debe
000001b0: 3bc1 90be 6483 c8be 7657 983d 9a6e 573e
000001c0: 961d 913e 2aa7 b4be 16d2 75be e852 99bb
000001d0: 7b00 993d e051 e63e ce0c bfbe 3111 813d
000001e0: 30f0 3e3e 096c 5a3e 2129 bcbe 6616 fabd
000001f0: a915 2fbf 2807 cdbe 8558 723e 3ff8 afbe
00000200: 6e9d 243e e410 f3be af1c b63d 8d80 93be
00000210: 5589 203e 4fea 99be c3a7 03bd ea4f b3be
00000220: db07 d2bd 0a89 9b3e 0beb be3e 023a c7bd
00000230: da2a 523d 33a0 1d3c 9c99 edbe 6b41 a73e
00000240: 0e55 81be bda7 0b3e 51ef 0abe 5048 cdbe
00000250: 6762 dd3a e57a ca3e a064 b13e 980d 96be
00000260: ccf0 f53e 4483 cabd 992e a0be 5409 5abe
00000270: 8b13 d53e 694b 2abd 86cc 163c 8a5a 27be
00000280: 63c2 823c 6510 adbe 1fa0 58be 1eda eb3e
00000290: ca6a e23e 8bb0 f63e aa8e e7be 61e8 673e
000002a0: 3f68 adbe 2ced ef3d 0edc df3e be3e 283f
000002b0: fb04 643e f04a eb3d f55b 013e 45fa e73e
000002c0: 8bc1 7dbe 12f3 d13e 2f0b 23bd a2dd a2bd
000002d0: 765a 07bf 1a67 3ebe a123 9fbe f897 1abe
000002e0: 83c5 9fbd 47b4 c6be d869 3f3e d6b2 033f
000002f0: c371 ca3e 94cb a73e efe7 e1bd b8ad 0fbf
00000300: fb2e 643c 16fe 513e ad20 cabe 6eb1 593e
00000310: ba07 d23e f40a c83d 9ab5 adbe a4fe af3e
00000320: cbe5 073e c027 803e 977d d6be fc36 573e
00000330: d836 abbe 12fe 283f 0a4e 40be 2a44 593e
00000340: f153 033d e714 903c f796 c1bc 3382 c33e
00000350: 00f3 36be e27a b0be 772a 59be 4ad2 b53e
00000360: c8db e6bd e865 4d3e 51c7 4dbe ac01 ac3e
00000370: da71 363e 9d6f ba3d 72c0 34be ece9 a4be
00000380: c2bb 623d e1fe edbd 48a5 693e 0c50 59bf
00000390: a0fb a43e 255b 343f fb05 8d3e 7226 9e3c
000003a0: 4f47 38bf fdb9 e93e 5a47 d1bb b6a0 13bf
000003b0: 2248 e63e 0b16 e2be 79df 573e 5c6a 693f
000003c0: b9bb abbe e35a d6be 3c66 8c3e 4039 4c3e
000003d0: ed05 e83c 7b3b d7be d705 823c e4cc 89be
000003e0: 370d 1ebe 8201 d2be f0cb 033f 022c 9d3e
000003f0: 4733 b2be c214 2b3f b4c7 183d c760 91be
-0.028541265 -0.14398159 0.5861433 0.3829192 0.33337292 -0.15250194 0.23626302 0.47665742
-0.70524985 0.0065814573 -0.02793857 -0.3125862 -0.48971283 0.5423882 0.39026412 0.18655543
0.4145561 -0.12808587 -0.09725761 0.11079377 -0.011706023 0.03390279 -0.3314886 0.082358815
-0.24495862 0.0022230928 0.5981949 -0.08528428 -0.37366784 0.50606114 0.05443211 -0.18042947
0.044883538 -0.37616032 -0.3519364 -0.24440879 0.0114433635 -0.17726412 -0.12864748 0.3580736
-0.0068691634 -0.0385872 -0.31944904 -0.34710303 -0.07040383 -0.235515 -0.35084817 0.28199625
-0.27906984 -0.31120852 -0.15244019 0.3857829 -0.26035377 -0.14481805 0.36187702 0.20802024
0.20945215 -0.49726936 -0.35878783 -0.32584938 0.4130488 0.051150203 -0.37394857 0.0031309128
-0.27160168 -0.10398868 -0.015204698 0.62903726 0.1722965 -0.089323476 0.04951808 -0.1452037
0.06731569 0.12061231 0.204743 -0.120536 0.3411977 -0.088831045 -0.023439547 0.34861767
0.3071203 0.72207254 0.19555391 -0.48811558 0.05478801 0.62889177 -0.4525274 -0.350253
-0.46341667 0.062455747 0.241069 -0.23479487 -0.20652124 0.30113405 -0.046242766 -0.6898952
0.43062994 -0.2202068 -0.07995684 0.01617062 0.028365232 -0.46543124 0.53565514 -0.07580586
-0.5316995 0.16429093 -0.20688818 -0.4340443 -0.28272423 -0.39162743 0.07438557 0.21038285
0.28342885 -0.35283786 -0.24005923 -0.0046790726 0.07470795 0.4498434 -0.37314457 0.06302107
0.18646312 0.21330275 -0.3675013 -0.122113034 -0.68392426 -0.40044522 0.2366658 -0.34369084
0.1607568 -0.47473824 0.0889219 -0.28809014 0.15677388 -0.30061576 -0.032142412 -0.35021907
-0.102554046 0.3037799 0.372887 -0.09727861 0.051310398 0.009620714 -0.46406257 0.32667097
-0.25260204 0.13638206 -0.13567854 -0.40094233 0.0016890288 0.39546886 0.34647083 -0.29307246
0.48035276 -0.09888318 -0.3128555 -0.21292621 0.41616473 -0.041575823 0.009204036 -0.16343132
0.015961831 -0.3380157 -0.21154831 0.46064848 0.442221 0.48181567 -0.45226032 0.2264724
-0.33868596 0.11715159 0.43722576 0.65720737 0.22267525 0.114889026 0.12632735 0.45308128
-0.24780862 0.4100576 -0.039805587 -0.07952429 -0.5287241 -0.18594018 -0.3108187 -0.15097034
-0.07801344 -0.38809416 0.1869272 0.51444757 0.39539918 0.32772505 -0.11030566 -0.5612445
0.013927217 0.20507082 -0.39478055 0.2125909 0.4102152 0.09767714 -0.33927613 0.34373963
0.13271253 0.25030327 -0.41892692 0.21017069 -0.3344028 0.6601268 -0.1877977 0.21217409
0.032062475 0.017588092 -0.023631556 0.38185272 -0.17866135 -0.34468752 -0.21207605 0.35512
-0.11272389 0.20058405 -0.20095564 0.33595026 0.17816868 0.0910332 -0.17651537 -0.32209718
0.05535484 -0.1162088 0.22816956 -0.84887767 0.32223225 0.70451576 0.27543625 0.019305442
-0.7198381 0.4564971 -0.0063866796 -0.576671 0.44976908 -0.44157442 0.21081342 0.91177917
-0.3354166 -0.41866216 0.2742175 0.19943714 0.028323138 -0.42037567 0.015871925 -0.26914132
-0.15434729 -0.41016775 0.5148306 0.30697638 -0.34804747 0.6682855 0.037299827 -0.28394148

net.0.bias f4 [128]
00000000: 838c 2abe 4bab 1a3c 8098 6bbd accb 8fbe
00000010: a0f9 80be 4eb0 05be 7dd0 d8be 7364 f43d
00000020: b03b dbbd 3c41 1a3d 3757 1c3e 78c9 a23d
00000030: afb0 dabd 22ab d8be 3c54 8ebd b603 adbe
00000040: 2501 dbbd 3e1a 24be a0c7 82be 28c4 2dbe
00000050: 9f0d 7c3e 2039 833e 8211 e43d 4bd7 a83e
00000060: a677 f8be de81 3ebd 8b47 8b3e 049e bb3d
00000070: 961b ddbe ea77 5d3c b823 aebe 38f0 083d
00000080: 2e15 b9bd 13d9 01bf 3070 22bf cac5 c3be
00000090: d4e0 743e cb0f 6c3d 6f81 ebbe c8c3 64be
000000a0: aa55 8fbb 44f6 d7be 5304 ba3d c201 e53d
000000b0: ccec edbc d6af a2be ae94 103e d0e3 1c3e
000000c0: 2d5b 0dbd b491 a5be a15c 07bf bd20 433d
000000d0: 4994 85bd 747f 86be d5da 78be 669a abbe
000000e0: 4f92 c53e 7a07 4a3e 8670 a83e b8a8 a03e
000000f0: 4a90 1a3d 45a0 e1bd 0578 febc 3aea 693e
00000100: 1627 0dbf 49a7 c7bc 6c61 2fbe d052 353e
00000110: a64e cf3c e40a 50be 3816 41be cc32 90bc
00000120: e825 d2be d79a d4be 3ba4 e5be f555 a5be
00000130: 6acb 7a3e 8e99 463e 0faa 13be d8a4 053e
00000140: 2ae3 7ebe ac4b aebe c947 66be 1789 c7be
00000150: e783 dabe 788d 05bf 32e3 e2be f053 79bd
00000160: 3487 dd3d 7341 203e dd7d 763e 7a0f 08be
00000170: 038e 4a3e 7c2b 99be 2a77 5f3d 2835 0cbf
00000180: e528 ea3d c6ff a83d 1a0d fc3d ea4e 203e
00000190: d027 95be 6967 723d a501 92bd 9723 8e3e
000001a0: f8f5 253e 6374 2d3d cae8 a63e 2748 1e3e
000001b0: 925d 333e e0ab 8fbd 4a2f 34bd ed7e 193e
000001c0: bc55 d2bd babf db3d a022 bf3c 2c74 95be
000001d0: 5fe3 61be 9057 343e 4d1b c63d 193b 3abe
000001e0: d81a ab3e 6fbb 0c3e 1041 12bf 1197 21be
000001f0: b42d 19be f788 20be 73af 4d3e fb5e 4dbe
-0.16655163 0.0094402535 -0.057518482 -0.28085077 -0.2519045 -0.13055536 -0.42346564 0.11933222
-0.10704744 0.03765987 0.15267645 0.07948583 -0.10678231 -0.42318064 -0.0694966 -0.33791894
-0.10693578 -0.16025636 -0.25542927 -0.16969359 0.24614571 0.2562952 0.11136152 0.32976755
-0.48528785 -0.04651057 0.2720302 0.091609985 -0.4318511 0.013517359 -0.34011626 0.033432215
-0.09037243 -0.50721854 -0.63452435 -0.3823684 0.2391389 0.05763225 -0.45997187 -0.2234031
-0.0043742256 -0.42180073 0.09082856 0.11181976 -0.029043578 -0.31774777 0.14119217 0.15321279
-0.03451078 -0.32337725 -0.52875715 0.047638644 -0.06522424 -0.26269114 -0.24302228 -0.33516234
0.38588187 0.19729415 0.3289835 0.31378722 0.03773526 -0.11016897 -0.03106309 0.22843257
-0.55137765 -0.02437176 -0.17127007 0.17707372 0.025306057 -0.20316654 -0.18856132 -0.017602347
-0.41044545 -0.41524383 -0.4485186 -0.32292143 0.24491659 0.19394514 -0.14420341 0.13051164
-0.24891344 -0.34042108 -0.22488321 -0.3897178 -0.42678759 -0.5216899 -0.4431396 -0.060871065
0.108168036 0.15649967 0.2407145 -0.13287154 0.19780736 -0.29915988 0.054557003 -0.5476861
0.11433581 0.0825191 0.123071864 0.15655103 -0.29131937 0.05918065 -0.0712922 0.27761528
0.16207111 0.042347323 0.3259948 0.15457211 0.17516163 -0.070152044 -0.04399041 0.14989825
-0.10270259 0.10729928 0.02333194 -0.29190195 -0.22059391 0.17611527 0.09673176 -0.18186606
0.33418918 0.13743375 -0.5713053 -0.15780284 -0.1495884 -0.15677248 0.2008646 -0.20055763

net.2.weight f4 [2, 128]
00000000: a0e3 39be 94ef c7bd 9cdd 003e 4cb3 e43d
00000010: 9052 4ebc 4ee9 a23d 88b4 843d 17e9 733e
00000020: adad 153e 72e6 d1bc c1fb d93d 0273 85bd
00000030: c89b 03bd 39e4 11bd 45c9 733d 0167 0b3d
00000040: 39fa 8ebd b255 553d cda6 453d 70e3 73bd
00000050: 2ea9 933d 5978 273e a082 b93d f76c 5a3e
00000060: 0c5e 6c3d 1036 cf38 37ca 473e 8513 073d
00000070: fb08 0c3c ea02 953c ff2b ad3d 4999 813e
00000080: 84b1 253e 3940 3ebd ac37 9cbd 2215 a0bc
00000090: 6e34 6e3e 6ea8 ad3d 7f4a 70bd e82c d73d
000000a0: 3503 1cbd aae6 453c 0d6e 0cbe 3473 923c
000000b0: fde1 553d 8256 4e3e 82ab e6bd f0f4 853e
000000c0: b722 0b3d 6f9e 31bc 6157 68bd 6b0a b03d
000000d0: 3234 85bd 6040 683c 06f3 6e3b d90b cf3c
000000e0: c921 3c3e 28b3 6f3e 180e 5c3e 2c4a 1bbe
000000f0: 9c05 aabd 0aff ab3d 0174 d3bd d92b 073e
00000100: 35fa e53b 252e d63c 2239 1c3e 182d 113e
00000110: 882e 8c3e c2c4 d83b fe53 a13d e364 b83d
00000120: cc24 e8bc 13d2 e43d f0e0 a93d 880c ef3b
00000130: 0729 a83e ebd7 2abe 2d83 3dbe 4c65 8b3d
00000140: 9b83 243d 7e11 8b3d 3bff 8c3d 6e87 b73c
00000150: 474e 0b3e 2e84 593d 80c1 953d 3457 67bb
00000160: 4284 6ebc d9a5 62bd f575 97bd 8c50 babd
00000170: b4f6 9e3e b79b 4fbd 6dc4 19be 907d 2abd
00000180: 7fac 24be 627a 22be d57e 113e 53c6 593e
00000190: d7a9 abbb 5775 193c b5ae b23d 7551 7b3e
000001a0: 28a8 283e 0532 803c 962b 4e3e 3667 cc3d
000001b0: 4f03 2bbd fd30 3f3d e6a3 93bb 2e17 2d3e
000001c0: 14a6 00bd 279b 0bbd 4e49 5bbd 9756 1a3d
000001d0: a5ea 5c3d a74a 4fbe b457 8d3e 8272 053d
000001e0: 586d 853e 3aac c4bd 8f02 13bd 11d1 ccbc
000001f0: eff5 d73c 576c b13e ce0e e83d e8b7 623d
00000200: 4872 993d c586 0a3e 1b44 12be 442b 4cbd
00000210: 6deb b73a c7c6 1b3d 847b bfbd ae7d 34be
00000220: 7853 7cbd 71a7 c23d 6560 1cbe 4b0e 84bd
00000230: 5d28 983d bc15 1c3c c46e 56bd 9396 1bbc
00000240: 4d77 513e 64bf 0a3d a4a7 84bd 8a5f 103d
00000250: b879 60be 3052 5dbe 9187 11be 89b8 0abe
00000260: a28c 31bd 39f4 73bd 18a9 0fbe e4d1 ce3c
00000270: 50b1 7dbd df39 1fbd 09bb 9abd 786d 5bbe
00000280: f2f7 28be fd04 543d eed7 0cbc d8a1 953b
00000290: 672c 00be 125c 0dbe b409 773d 16fb cabc
000002a0: 8f26 e13d d05b 0fbd d4ee c63d e221 113d
000002b0: 1971 92bd 98b3 c0bd f182 b53d f12c 31be
000002c0: 510b 093d 4168 2cbd 9871 c93d 8b99 1dbd
000002d0: 8106 a43d 32cf 90ba a9ff c53c f46e 00bd
000002e0: 0889 6fbe c133 b9be 9f73 93be 7933 2a3e
000002f0: 1740 a83d b60f 99bd 4558 283d dcdf 09be
00000300: 22a8 02be 7413 213d 3f37 d6bd 6b2b d3bd
00000310: c9e5 95be 9e41 133d 24c5 35bd 1cd8 8bbd
00000320: 1a35 97bc 3ac5 a4bc 1ee8 febd 41ef 01bd
00000330: 5af9 90be 6ebb 143e 51f9 6f3e a8be ccbc
00000340: fdf9 8f3d bad2 32b8 119a 0bbe 84ed d4bc
00000350: 3ff0 d3bb 08e9 8a3d 29dc 18bd fe3b 853d
00000360: cae3 b53d 1892 1abd c5c7 3d3e 8bb6 af3d
00000370: 7ebb 48be 4b61 b33d 635b 863d 9ec4 313c
00000380: eeb3 2a3c cd61 943d a062 9dbe 2d09 73be
00000390: a318 b23d dd45 9b3d fb9f 05bd be8a 29be
000003a0: fffb 3bbe 617a 7abd 7842 96be cc43 0fbe
000003b0: b8c0 4e3e 0673 e1bd 227d 213c 0507 9dbe
000003c0: 4096 7cbc 262d 96bd b314 1d3e c74f d0bd
000003d0: 4883 9abd 2d8e 0f3e efc0 5dbe f610 e1bd
000003e0: bbfa 39be c7cc d93d 504c 42bd 1105 71bd
000003f0: e033 db3c a48c ccbe 3c00 8bbe 486e fc3c
-0.18153238 -0.09762493 0.12584537 0.11167011 -0.012592927 0.079546556 0.06479746 0.23819385
0.14617033 -0.02562258 0.10643721 -0.065160766 -0.032130986 -0.03561804 0.059518117 0.03403378
-0.0698132 0.05208368 0.048254777 -0.059543073 0.07210003 0.16354503 0.09058118 0.2133063
0.057706878 9.880599e-05 0.19510733 0.0329776 0.008547063 0.018189866 0.08455657 0.2531226
0.16180998 -0.046447966 -0.07627806 -0.019541327 0.23262188 0.08479391 -0.058664795 0.10506612
-0.038088996 0.01207892 -0.13713856 0.017877199 0.052217472 0.20150188 -0.11263181 0.26163435
0.033968654 -0.010840996 -0.056723956 0.08595737 -0.06504096 0.014175504 0.0036460771 0.025274204
0.18372263 0.23408186 0.21489751 -0.15165013 -0.08301851 0.08398254 -0.1032486 0.1320032
0.0070183524 0.02614505 0.1525617 0.14177358 0.2737925 0.0066152522 0.07877348 0.090036176
-0.028337859 0.11172881 0.082948565 0.007295195 0.328438 -0.16683929 -0.18507071 0.0680643
0.04016457 0.06790446 0.06884619 0.022403445 0.13604079 0.053104572 0.07312298 -0.003529978
-0.0145579 -0.055333946 -0.073955454 -0.09097394 0.31047595 -0.05068561 -0.15016337 -0.041623652
-0.16081427 -0.15866998 0.14208539 0.21267061 -0.0052387523 0.009366355 0.08724729 0.24542792
0.16470397 0.015648851 0.20133814 0.099806234 -0.041751202 0.04667758 -0.004505622 0.16903374
-0.031408384 -0.03408351 -0.053536706 0.037680235 0.053934712 -0.20243321 0.27605975 0.032579906
0.26059985 -0.09603162 -0.035891112 -0.025002034 0.026362387 0.3465297 0.11330949 0.055351168
0.074925005 0.13527973 -0.14283793 -0.04984595 0.0014031954 0.038031366 -0.093497306 -0.17626068
-0.06160304 0.09504593 -0.15271147 -0.06448039 0.07429574 0.009526666 -0.052351728 -0.009496349
0.20455666 0.03387393 -0.064772874 0.035247363 -0.21921432 -0.21613383 -0.1421187 -0.13546957
-0.04334701 -0.05955908 -0.14029348 0.025246568 -0.061936677 -0.03887355 -0.075552054 -0.21428478
-0.16500834 0.05176257 -0.0085964035 0.0045664124 -0.12516938 -0.13804653 0.060311988 -0.02477793
0.109936826 -0.03499967 0.097135216 0.035432704 -0.07150478 -0.09409255 0.08862866 -0.173023
0.033458058 -0.04209161 0.098361194 -0.038476508 0.08009053 -0.0011048077 0.02416976 -0.031355813
-0.23392117 -0.36172298 -0.2879915 0.16621198 0.08215349 -0.074737 0.041099805 -0.13464302
-0.1275945 0.039325193 -0.10459756 -0.10311016 -0.29276875 0.03595125 -0.04437746 -0.06828329
-0.018457938 -0.020113576 -0.124466166 -0.03172231 -0.2831524 0.14524624 0.2343495 -0.024993256
0.07030103 -4.263476e-05 -0.1363299 -0.025992163 -0.0064678486 0.067827284 -0.037319336 0.06505583
0.08881338 -0.037736982 0.18533237 0.08579739 -0.19602773 0.087587915 0.065603994 0.0108501
0.010418875 0.072452165 -0.30739307 -0.23733969 0.08696105 0.07581685 -0.032623272 -0.16556832
-0.18357848 -0.061151866 -0.29347587 -0.13990706 0.20190704 -0.11008267 0.009856494 -0.30669418
-0.015416682 -0.0733283 0.15339927 -0.10171466 -0.07544571 0.1401908 -0.2165563 -0.10989563
-0.18162052 0.10634761 -0.04743606 -0.058842722 0.026758134 -0.3995105 -0.27148616 0.030814305

net.2.bias f4 [2]
00000000: c3b6 783d 969e e3bd
0.06072117 -0.11114232
