vanilla.pt (torch, 5520 bytes, 4 tensors)

net.0.weight f4 [128, 4]
00000000: a16f e83e 5f8f b03e 2418 82be 453c ba3e
00000010: a1dd 57bd 6fb6 1e3e d5f2 96be 6dcf 753e
00000020: e720 023f cb2c 9dbe 5d71 c53e ad0f 1d3d
00000030: 9422 bd3e 50ae 8a3d 5ce1 763e 6094 90bd
00000040: 5414 ae3e e53d b9bc 5495 70be 948a 503e
00000050: abac 08be 4fd5 ca3c bc45 94be 0ef7 7a3e
00000060: 8ff9 bebe ddac edbd e0f7 62be c336 fdbe
00000070: f037 13be baf2 1dbf 16a3 373f c375 61be
00000080: 2f0b 013f 0efd 153d f40d 0cbe 36bb c43e
00000090: f133 a0bd b646 283f b01b 3dbd 615f d4be
000000a0: 8dfe 493e b5f3 b1bd 1de3 b93e e7f1 fd3e
000000b0: 6aca de3e 68c2 d9be 1961 a93e d63d a53e
000000c0: d983 ee3d a6f9 a4be 633a fbbe 2d43 a3be
000000d0: 9c5b c4be d60e d23e d878 133e cc13 543e
000000e0: 950b f9bd 344f 313d 5929 9c3e d176 11bf
000000f0: 71b2 333e ae8e e6be ab7f ba3e 70b2 dd3d
00000100: f867 de3c bc86 c2be d793 8e3e 93b7 bdbe
00000110: 1ab3 e6bd 2e80 a5be 4c35 183f a460 a03e
00000120: c964 b43e e98b ccbe 3238 05bf 1f6c 15bf
00000130: 0342 efbe ce95 823e 24a2 f73d 4690 9b3e
00000140: b109 65be ae05 07bf c24d fa3e 43b9 0e3e
00000150: 9909 6f3e 1ed5 82bd 92eb ed3d a6a8 0fbf
00000160: cdee cebe c0d1 9a3e 9e36 07be b71b 04bf
00000170: 6e66 223e 3970 193f 21df 8abe ab51 c5be
00000180: 90fc a73e 5cbe 8cbe 8717 84bd 4369 babe
00000190: 53ee a6be 851c 253e 4478 7ebc fddd f0be
000001a0: 3b26 2c3e f1b1 9ebe 565f 7ebe 351b 12be
000001b0: 8586 cbbe 6eb0 84be a82f 213f bf4a 193e
000001c0: b787 e73d 8a6a aebe 2491 3cbe e25e 653d
000001d0: 34d1 cfbd 1847 efbe 4ee5 bfbd 6875 3abe
000001e0: 2b56 a4be 569a d8be 2e75 6d3d 26a2 0ebe
000001f0: 3820 0bbf 993e 9dbe dca1 60be 9156 f6be
00000200: 478c 763e 5a73 b83c 9ae6 cb3e d91b ccbc
00000210: 062d 1abf 080d e93e efe0 0f3e 908c 1dbe
00000220: a191 94be 149c 1cbf 3c07 a93e dbf9 033e
00000230: ea1f 03be 701f 0bbf 05c8 de3e f8b8 b1be
00000240: 7588 95bc ebc9 2bbe 7627 b93e 7f13 3a3f
00000250: 6b6e a53e e0c1 c0be 3c47 673e d236 64be
00000260: 4b86 2fbc 8e46 d0be bc82 c73e 813d c8be
00000270: 549e d03d b0b9 943e a4dc 80bd 139f 16bf
00000280: fe3c 9b3e a51b 913e 5e32 343e ea18 0cbf
00000290: 13a9 a43e 14e1 adbd de1f 5fbd 7a51 1a3f
000002a0: 16ec 5f3e 5550 3fbe 7942 a8be 1b7f efbd
000002b0: 985a 693e 0260 37be de9a 6fbe ca93 f5bd
000002c0: ff0a 2abf f7ce 8b3e 68b6 8f3e e34e 28bf
000002d0: 335d 673e 3050 043f 2071 423e 4b37 86be
000002e0: 741d e33d 3a42 553e ce1a 52bd a319 89be
000002f0: 29a4 0dbe 4b75 033e f7c1 b0be a1fc e8be
00000300: f4e4 683e c3a3 c63e c9e9 62be 20ef 53be
00000310: e68c 2d3d 953b 91be 5f37 5c3e 5530 eb3e
00000320: 2e11 d9be 63b2 afbd a23d 343f 84d3 a93e
00000330: b331 b7bd e01b e3be 9ea3 7ebe 0a4f a9be
00000340: 05cb d2bd 9e66 6a3e a87b 843e 89e4 2e3e
00000350: 94cd acbe f088 ccbe 7005 8abd c6b3 0a3f
00000360: 1821 943d d097 04be 7cd2 533e e802 43be
00000370: ab88 d3be 99e1 893e 8a76 dfbd fc5e a5ba
00000380: 7eab febe 5255 ab3e 58f4 c13e f498 3a3e
00000390: 3d9f 6fbe efa7 a4be e17f f6be 8941 903e
000003a0: 86cb ff3d 93ba c03e 9551 453e 2090 b53d
000003b0: 6038 ba3b 7336 a3be 90d6 76be 6b17 91be
000003c0: 3e1e 873e 67c8 40be 086a a03d 70ba e0bd
000003d0: 3340 3f3d 827c e2be 96b7 a2be 96eb 9b3e
000003e0: 31c4 8fbe baa5 b33e 3f04 abbe f5ba 11bf
000003f0: 83b5 49be f8f7 b9be 8df5 69bd e139 e3be
0.45397666 0.34484383 -0.25409043 0.36374107 -0.052701596 0.1549928 -0.2948214 0.24004908
0.50831455 -0.30698237 0.38563052 0.038345028 0.36940444 0.06771529 0.24109405 -0.0705955
0.33999884 -0.022612521 -0.23494464 0.20365363 -0.13347118 0.024759917 -0.28959453 0.24508306
-0.37299773 -0.11605237 -0.2216487 -0.49455842 -0.14376807 -0.61698496 0.71733224 -0.22017579
0.5040769 0.036618285 -0.13677198 0.3842408 -0.07822407 0.65732896 -0.046168983 -0.41479018
0.1972601 -0.086890616 0.36306086 0.4959862 0.43513805 -0.42531133 0.33081892 0.3227374
0.11646242 -0.32221717 -0.49067983 -0.3188719 -0.38351142 0.41026944 0.14401567 0.20710677
-0.12160412 0.043288425 0.30500296 -0.56821924 0.17548539 -0.4503073 0.36425528 0.1082505
0.027149186 -0.3799342 0.27847168 -0.3705412 -0.1126463 -0.32324356 0.59456325 0.3132373
0.35233143 -0.39950493 -0.5203887 -0.58368105 -0.4673005 0.25504917 0.12091473 0.3038351
-0.22366978 -0.5274304 0.4888745 0.13937859 0.23343505 -0.06388305 0.11617197 -0.5611671
-0.40416566 0.30238152 -0.13204429 -0.5160479 0.15859386 0.59936863 -0.2712336 -0.3853887
0.32809877 -0.27488983 -0.064498 -0.36408433 -0.32603702 0.1612416 -0.015531603 -0.47044364
0.16811459 -0.30995134 -0.24841055 -0.14268191 -0.39751068 -0.25915855 0.6296334 0.1496992
0.113051824 -0.34065658 -0.18414742 0.05599869 -0.10147324 -0.46733928 -0.09369908 -0.1820885
-0.3209699 -0.4230525 0.05797308 -0.13929042 -0.54346037 -0.3071182 -0.21936744 -0.4811292
0.24076949 0.022515941 0.39824373 -0.024915623 -0.6022495 0.45517755 0.14050649 -0.15385652
-0.29017356 -0.61175656 0.33013332 0.12888281 -0.12805143 -0.54344845 0.43511978 -0.34711432
-0.018253544 -0.16776244 0.3616292 0.72686 0.32310805 -0.37647915 0.22585768 -0.22286537
-0.01071317 -0.4067883 0.3896693 -0.39109424 0.10186449 0.29047918 -0.06292084 -0.5883648
0.3031997 0.28341404 0.17597339 -0.54725516 0.32160243 -0.08490196 -0.05447375 0.60280573
0.21867403 -0.18682988 -0.32863215 -0.11694165 0.22788465 -0.17907718 -0.23398921 -0.11991079
-0.6642303 0.2730634 0.28068852 -0.6574537 0.22594146 0.51684856 0.18988466 -0.2621406
0.11089602 0.20826045 -0.051295094 -0.26777372 -0.13832153 0.12837712 -0.34522983 -0.4550524
0.22743589 0.38796815 -0.22159494 -0.20696688 0.0423707 -0.2836577 0.21505497 0.45935312
-0.4239592 -0.085789464 0.70406544 0.33169186 -0.08945026 -0.44357204 -0.24867103 -0.33068115
-0.10292629 0.22890708 0.25875592 0.17079367 -0.33750594 -0.39948225 -0.06739318 0.5418056
0.07232875 -0.12948537 0.20685762 -0.19044077 -0.41315207 0.2692993 -0.109112814 -0.0012616809
-0.49740213 0.33463532 0.37881732 0.1822241 -0.23400588 -0.32159373 -0.4814444 0.28175
0.12489991 0.37642345 0.19269402 0.0886538 0.00568299 -0.3187748 -0.24105287 -0.2833818
0.2639026 -0.18826447 0.07832724 -0.1097306 0.046692085 -0.44235617 -0.3178069 0.30453175
-0.2807937 0.35087377 -0.33401677 -0.569259 -0.19698147 -0.36321998 -0.05711894 -0.44380096

net.0.bias f4 [128]
00000000: c762 843c ff74 e0be 4909 bdbe 7cd5 d4be
00000010: f840 1a3d 0331 10bf 1898 8d3e ac60 bc3b
00000020: ad1c 9abd 7beb 8c3e 8a70 9bbd 7c4c 2f3e
00000030: a400 2f3e 0443 debe c6ab 2f3e f988 7e3d
00000040: c96c 3c3c c5f3 133e e46b 10bd 3b7e adbe
00000050: 4b3c f13d 5aab d03e f4c4 5a3e d28a ed3a
00000060: 5d72 19bf 1629 243e 9f9f 07bf cc76 333e
00000070: 864f e9be b129 2bbe 3d3d 01be d08f 223e
00000080: 734b 7d3e b050 1f3e 3112 3b3e f6cc 3bbd
00000090: 2bb1 543e cd38 8bbe 4695 58be 7d05 683e
000000a0: 8e47 3cbb 580c e33d 056d 4fbe 1ce7 c7be
000000b0: 30c9 6e3e 12b6 893c 7344 843e 2513 813e
000000c0: f0a2 ac3e 9786 ad3e 71f9 483d 2036 03bf
000000d0: d056 d2be 0cfb 96be 7e99 e1be 1b05 b1be
000000e0: 54aa ebbe 206f 27bf 7098 bebe cee2 2ebf
000000f0: 1fc4 f8be fe48 f43d d61f d23e bc5a 6cbe
00000100: ce3f 84be 2cf4 90bd 4c51 aabe 0937 48be
00000110: 22c6 603e 3439 21bf bde0 37be 9f52 6d3e
00000120: 19a7 9f3d 226e 283c 5a1b e4be 4f36 14be
00000130: 2a8e c73d 9d75 123e 38be 82bc 3361 873e
00000140: 9357 e2be 384b 763d 2c55 c8bc 36ad 76be
00000150: 10f3 d0bd 11d1 11bf 309f 933e ad21 223e
00000160: 45d0 9fbe b2c2 793e da0f 02bf 4963 86be
00000170: 9fcf 983d 096b 1ebf 74e4 b6be c354 7fbd
00000180: 005a c53e 84e6 a63e 302e 873e 9b8c b4be
00000190: 0073 c7be 87db 603e 90bf 6b3e d3d5 24be
000001a0: 660e 5a3e 6270 ffbe b838 39be 3bc8 a43e
000001b0: a4b0 63be 50c5 13be 27c2 07bf f2e4 c8be
000001c0: 5da7 a9bd 4e04 9fbe 7aaf ef3d 4b6b 583e
000001d0: d469 fabe f464 2b3e 20f4 94be ca60 a0be
000001e0: 9ac8 d23d 7b63 313e e958 0d3e 1c36 52be
000001f0: 6307 06bf 2942 bfbe 66de f2be 89cd 31be
0.016160382 -0.4383926 -0.36921147 -0.41569126 0.037659615 -0.56324786 0.276551 0.005748829
-0.07525001 0.27523407 -0.075898245 0.1711902 0.17090088 -0.43410504 0.1715537 0.062142346
0.011500546 0.1444846 -0.035259143 -0.3388537 0.11779078 0.4075573 0.21364194 0.0018123037
-0.5994013 0.16031298 -0.5297794 0.17525786 -0.45568484 -0.16715123 -0.12621017 0.15875173
0.24735813 0.15558124 0.18268658 -0.045849763 0.20770709 -0.27191773 -0.21150693 0.22658344
-0.0028729173 0.11086339 -0.20256431 -0.3904351 0.23318934 0.01681045 0.25833473 0.2520992
0.3371806 0.33891746 0.04906601 -0.51254463 -0.41081858 -0.2948841 -0.44062418 -0.34574208
-0.46028388 -0.6540394 -0.37225676 -0.68314826 -0.4858713 0.11927985 0.41039914 -0.23081487
-0.2582993 -0.07077822 -0.3326515 -0.19552244 0.21950582 -0.6297791 -0.17956825 0.23176049
0.07795543 0.010280164 -0.44552118 -0.14473842 0.097439125 0.14302678 -0.015959844 0.26441345
-0.4420744 0.060130328 -0.024454676 -0.24089512 -0.102026105 -0.56959635 0.28832388 0.15833159
-0.31213585 0.24390677 -0.5080544 -0.26247624 0.074614756 -0.6188207 -0.3572117 -0.062336694
0.38545227 0.32597744 0.26402426 -0.35263523 -0.38954926 0.21958743 0.23022294 -0.16097192
0.21294555 -0.4989043 -0.18088043 0.32184014 -0.22235352 -0.14430737 -0.5303063 -0.3923717
-0.08283875 -0.31057972 0.117033914 0.21134679 -0.48908865 0.1673773 -0.29092503 -0.31323844
0.10292168 0.17323105 0.13803448 -0.20528454 -0.5235502 -0.37355164 -0.47435302 -0.17363562

net.2.weight f4 [2, 128]
00000000: 6918 eebc 9983 7abd 4601 213d c723 633d
00000010: 19d3 a7bd 21d1 1abd 2137 1b3e 17e2 cfbc
00000020: f969 f8bd 5aa5 583e 18c5 84bd 917d 3cbe
00000030: a109 d23d 5ee0 ba3b 9372 873e b3c9 70bd
00000040: dfe3 273c 5a50 55be 8822 0f3e facb 023e
00000050: c9b9 69be 38ef 3a3e 210a 083e 1a34 893e
00000060: 1a4e 2b3d 3562 483e 5ba3 793d 7a2f 5cbd
00000070: f884 14be 6891 a2bd c705 e13c 31a9 6e3e
00000080: 977b 4c3d 494b ab3e 1b6c 21be e22a e63d
00000090: 368b 3cbe 0571 ddbd 4bda ba3d e5fd 6a3e
000000a0: b0f2 443e 70bd 2cbe 5367 0bbd 0674 c5bc
000000b0: 91cb 923e 18f6 923e 073a 003e 7f2f e63d
000000c0: b684 d53d 5029 c5bd 2f0c eabd 6e75 1a3d
000000d0: e964 993d 4fa0 0bbd d2aa 8d3c a096 14bc
000000e0: ca1d 913d e357 2ebd 58bc 993d b71b f4bc
000000f0: d867 1f3d 4cb5 2abe 3bc7 583e e1a8 963d
00000100: b934 83bd 8ea4 6b3d bc3a 533c 7fa4 8c3e
00000110: 1342 283e 1d7a 74ba 6290 5b3d 9609 88bd
00000120: c6c8 8dbd 6278 febd c6b2 cabd b94f e9bc
00000130: 1918 0cbe ba4f 87be b8e4 313e c15b 333e
00000140: 9157 823b 9343 ed3d c9a2 08be 7664 403e
00000150: 6af7 80bd f8bd ef3c 7044 063e ebe4 89be
00000160: 6f4c 87bd 9f4a 7cbe d460 163c 167b 023c
00000170: 7fd8 7abe 8d30 0e3e e082 063e ecde debc
00000180: 44b1 4c3e 49aa 98bc 7ee5 933e c939 803c
00000190: 76b4 f7bb c134 563d 95a3 8f3e 4057 153e
000001a0: 3326 783e 370e c1bc d291 983d a6f8 9b3d
000001b0: cc20 a83d dc23 ab3c 1de8 b83c 3be6 25bd
000001c0: 1c86 b83d d1e1 9fba 16f6 af3e 42d0 623e
000001d0: d02b 363a ca1f a03e 870e 4fbd 8c3c 263d
000001e0: 33f4 31be 79fa 81bd 9879 513e fcec 6bbd
000001f0: 9a00 0fbd 74d4 b8bc 62b5 543d 6403 4d3d
00000200: 7160 20bc 0294 863d 6cbd 923d 1d44 113d
00000210: b35f 6bbd 2dd2 30bd a75b 0bbe c19b 12bc
00000220: b549 513d 500e 7abe 6414 143e d4de fc3d
00000230: 4c4f 8bbc 877e 0fbd 3425 65be faf0 243e
00000240: 7329 92bd 0f12 903d 86cb dcbd f531 0fbd
00000250: b712 f13d 1455 9ebd 58f6 84be 88ca 25be
00000260: 0b21 123d 2637 88be 6f3d 0b3d 8595 e0bc
00000270: a275 143e b58b aebb aada ccbd e72d dcbd
00000280: 14d9 a63c 5144 82be fe9e 6c3c 572b d43b
00000290: 3b3b 0c3e 4c61 b43c f274 22be 0c64 4dbe
000002a0: a667 5abd 0e14 023e c2a0 79bd f1e2 8b3d
000002b0: af07 95be 3d7d 30be 401b 1dbe b934 24be
000002c0: 4fde 0fbe d1aa 013e c6d3 f33d 57cf e13d
000002d0: a833 8abc 0b79 4b3e b4bc 4dbd 45eb 863c
000002e0: e35b d1bc 1fac f73d af68 92bd 053c 783d
000002f0: 3229 713d cae6 bf3d c44a 4dbe a88a 1bbe
00000300: d69f 103c 6513 36be 48e6 21bd 15d0 4fbe
00000310: c4ca 99be 739f 903c 98e5 2abd b4eb 6e3d
00000320: 57ef 143e 217b 4cbd ab30 ef3d 1a73 b83c
00000330: b6ba 143e 92ed 1a3e da43 45be 4c53 5ebe
00000340: 6068 733c b932 763c 4004 4a3e b759 1cbe
00000350: adaa 58bd ba19 053d 7be8 12be 397d 763e
00000360: 0b6e 213d 053d 703e 5d7c 093e fcd0 ecbb
00000370: 423a 3f3e 4d6f 1dbe cd08 9abb 3263 6d3d
00000380: 1ce3 9dbe ff9a e43c 243c 33be 030f b43d
00000390: a923 873d 6203 e7bd fa6b 85be cefe ba3c
000003a0: a5bf 8dbe 5461 13bc 6f2a febc f27b 2bbe
000003b0: 850d a0bd 930a 493d d0a7 803d 68c8 5a3d
000003c0: 7928 b6bd 4d70 153d e9a6 7ebe f543 60be
000003d0: bcde 623d 774e 41be a272 6b3d ef96 b93c
000003e0: 976d 603d 8e34 6f3d 0fc1 6abe 96db bcbc
000003f0: 6a70 88bd 11ca 9c3d 4ba1 133d 4c9e d7bd
-0.029064374 -0.061160658 0.039307855 0.05545404 -0.081945606 -0.037797097 0.15157749 -0.025376363
-0.12129588 0.21156827 -0.06482905 -0.18407275 0.10255743 0.005703016 0.264546 -0.058786105
0.0102472 -0.20831433 0.13978016 0.12773123 -0.22824778 0.18255317 0.13285114 0.26797563
0.04182253 0.19568713 0.060946804 -0.053756215 -0.14503849 -0.0793789 0.027468575 0.23306729
0.049922552 0.33455876 -0.15763895 0.11238648 -0.1841248 -0.108125724 0.09123667 0.22948416
0.19233203 -0.1686914 -0.034034085 -0.024103176 0.28670934 0.2870338 0.12522136 0.11239528
0.10425703 -0.0962702 -0.11428105 0.037709646 0.0748995 -0.03408843 0.017293368 -0.009069115
0.0708576 -0.042564284 0.07506627 -0.029798372 0.038917392 -0.16670722 0.2116975 0.0735643
-0.064065404 0.05752998 0.012892421 0.2746925 0.16431455 -0.00093260576 0.05360449 -0.06642453
-0.0692306 -0.12425305 -0.098973796 -0.028480398 -0.13681068 -0.26428014 0.17372406 0.1751547
0.003977724 0.115851544 -0.13343348 0.18788323 -0.062971905 0.029265389 0.13112044 -0.26932463
-0.066063754 -0.2463784 0.009178359 0.007963916 -0.24496649 0.13885708 0.13135862 -0.027205907
0.19989496 -0.018635886 0.28886026 0.015652554 -0.0075593544 0.052296404 0.2805449 0.14584064
0.24233322 -0.023566348 0.07449688 0.07615785 0.082093805 0.020891123 0.022571618 -0.040502768
0.09009954 -0.0012198036 0.34367436 0.22149757 0.00069492776 0.31274253 -0.050550964 0.040585086
-0.17378311 -0.06346602 0.2045654 -0.057599053 -0.034912683 -0.022562243 0.051930793 0.05005206
-0.009788618 0.06571199 0.071650356 0.03546535 -0.057464313 -0.04316919 -0.13609181 -0.008948267
0.051095683 -0.24419522 0.14460903 0.123471886 -0.017005585 -0.035032775 -0.22377473 0.1610755
-0.07136812 0.070346944 -0.107810065 -0.034959752 0.11771148 -0.07731071 -0.25969195 -0.16190541
0.035676043 -0.26604575 0.033994135 -0.027415046 0.14497998 -0.005326713 -0.10002644 -0.10750943
0.020367183 -0.25442746 0.014442204 0.006474893 0.1369447 0.022019051 -0.15864924 -0.20057696
-0.053321503 0.12702963 -0.060944326 0.06830395 -0.29107425 -0.17235275 -0.15342426 -0.16035737
-0.14049648 0.12662818 0.11905627 0.11025875 -0.016870335 0.19870393 -0.05022879 0.016469607
-0.02555651 0.12093376 -0.07148873 0.060604114 0.058877178 0.093701914 -0.20048052 -0.15189612
0.00882717 -0.17780836 -0.039526254 -0.20294221 -0.3003751 0.017654156 -0.041722864 0.058330253
0.14544426 -0.049922112 0.116792046 0.022515822 0.1452435 0.15129688 -0.19264165 -0.21711463
0.014856428 0.015026742 0.19728184 -0.15268598 -0.052897144 0.032495238 -0.14346497 0.24071206
0.039411586 0.23460777 0.13426347 -0.0072270613 0.18674567 -0.15374489 -0.004700756 0.05795593
-0.30837333 0.02790594 -0.1750341 0.08791926 0.065985985 -0.11279942 -0.26058942 0.022826578
-0.27685276 -0.008995373 -0.031026093 -0.167465 -0.07815079 0.04908235 0.06282008 0.05341378
-0.08894438 0.03648405 -0.24868359 -0.21900924 0.055388197 -0.18877588 0.05748237 0.022654979
0.054792013 0.05839973 -0.22925209 -0.023053925 -0.06662066 0.076557286 0.036042493 -0.105282396

net.2.bias f4 [2]
00000000: ca58 f63b 851d 9abd
0.0075179087 -0.07525162
